…
2025-02-22 01:26:54.995135: I tensorflow/core/platform/cpu_feature_guard.cc:182] This TensorFlow binary is optimized to use available CPU instructions in performance-critical operations.
To enable the following instructions: SSE SSE2 SSE3 SSE4.1 SSE4.2 AVX AVX2 AVX_VNNI FMA, in other operations, rebuild TensorFlow with the appropriatecompiler flags.
Model: "model"
_________________________________________________________________
 Layer (type)                Output Shape              Param #
=================================================================
 input_1 (InputLayer)        [(None, 128, 128, 3)]     0

 block1_conv1 (Conv2D)       (None, 128, 128, 64)      1792

 block1_conv2 (Conv2D)       (None, 128, 128, 64)      36928

 block1_pool (MaxPooling2D)  (None, 64, 64, 64)        0

 block2_conv1 (Conv2D)       (None, 64, 64, 128)       73856

 block2_conv2 (Conv2D)       (None, 64, 64, 128)       147584

 block2_pool (MaxPooling2D)  (None, 32, 32, 128)       0

 block3_conv1 (Conv2D)       (None, 32, 32, 256)       295168

 block3_conv2 (Conv2D)       (None, 32, 32, 256)       590080

 block3_conv3 (Conv2D)       (None, 32, 32, 256)       590080

 block3_pool (MaxPooling2D)  (None, 16, 16, 256)       0

 block4_conv1 (Conv2D)       (None, 16, 16, 512)       1180160

 block4_conv2 (Conv2D)       (None, 16, 16, 512)       2359808

 block4_conv3 (Conv2D)       (None, 16, 16, 512)       2359808

 block4_pool (MaxPooling2D)  (None, 8, 8, 512)         0

 block5_conv1 (Conv2D)       (None, 8, 8, 512)         2359808

 block5_conv2 (Conv2D)       (None, 8, 8, 512)         2359808

 block5_conv3 (Conv2D)       (None, 8, 8, 512)         2359808

 block5_pool (MaxPooling2D)  (None, 4, 4, 512)         0

 flatten (Flatten)           (None, 8192)              0

 dense (Dense)               (None, 512)               4194816

 batch_normalization (Batch  (None, 512)               2048
 Normalization)

 leaky_re_lu (LeakyReLU)     (None, 512)               0

 dropout (Dropout)           (None, 512)               0

 dense_1 (Dense)             (None, 256)               131328

 batch_normalization_1 (Bat  (None, 256)               1024
 chNormalization)

 leaky_re_lu_1 (LeakyReLU)   (None, 256)               0

 dropout_1 (Dropout)         (None, 256)               0

 dense_2 (Dense)             (None, 128)               32896

 batch_normalization_2 (Bat  (None, 128)               512
 chNormalization)

 leaky_re_lu_2 (LeakyReLU)   (None, 128)               0

 dense_3 (Dense)             (None, 120)               15480

=================================================================
Total params: 19092792 (72.83 MB)
Trainable params: 19091000 (72.83 MB)
Non-trainable params: 1792 (7.00 KB)
_________________________________________________________________
Epoch 1/50
386/386 [==============================] - 947s 2s/step - loss: 7.9390 - accuracy: 0.0091 - val_loss: 7.7388 - val_accuracy: 0.0097 - lr: 1.0000e-05
…
